tflite-micro-main/tensorflow/lite/micro/examples/hello_world/train/models/model.tflite (tflite, 2648 bytes, 3 tensors)

sequential_1/dense_2/MatMul i1 [16, 1] scale=0.0042242804 zero_point=0
0.4942408 0.11827985 0.071812764 -0.13095269 0.050691366 -0.5364836 -0.38440952 0.2788025
-0.008448561 -0.18164405 -0.18586834 -0.32949388 0.4097552 0.50691366 0.10560701 -0.13940126
00000000: 751c 11e1 0c81 a542 fed5 d4b2 6178 19df

sequential_1/dense_3/MatMul i1 [16, 16] scale=0.01263461 zero_point=0
-0.22742298 -0.05053844 0.0 -0.2526922 0.06317305 0.29059604 -0.21478836 -0.2526922
-0.32849985 -0.10107688 0.03790383 0.01263461 0.0 -0.07580766 -0.10107688 -0.1389807
-0.45484596 -0.2653268 0.49274978 0.2526922 -0.18951915 -0.42957672 -0.3790383 -0.46748057
-0.20215376 -0.42957672 0.61909586 0.07580766 0.02526922 -0.32849985 -0.22742298 -0.088442266
0.0 0.2779614 0.088442266 -0.4043075 -0.02526922 -0.01263461 -0.29059604 0.07580766
-0.31586525 -0.21478836 -1.6045954 0.34113446 0.30323064 -0.2779614 -0.69490355 0.01263461
0.18951915 0.0 -0.48011518 -0.11371149 0.17688453 -0.2526922 0.24005759 0.3916729
0.05053844 0.24005759 -0.96023035 -0.32849985 -0.03790383 0.07580766 -0.8970573 -0.4043075
0.16424993 -0.2526922 -0.20215376 -0.42957672 -0.2653268 -0.11371149 0.06317305 0.48011518
0.32849985 -0.35376906 1.4024417 0.32849985 -0.2779614 0.3790383 0.66963434 -0.41694212
0.32849985 -0.16424993 -0.18951915 0.31586525 0.18951915 0.03790383 0.34113446 -0.3916729
-0.42957672 0.24005759 -0.1263461 0.31586525 -0.01263461 -0.1263461 0.34113446 0.30323064
-0.20215376 0.35376906 -0.48011518 0.34113446 0.34113446 0.4043075 -0.34113446 0.32849985
-0.1389807 -0.01263461 -1.3392687 0.1389807 0.0 0.01263461 -0.6443651 -0.42957672
0.16424993 -0.1263461 0.2779614 -0.3664037 -0.24005759 -0.05053844 0.17688453 -0.29059604
-0.07580766 -0.2653268 1.1623842 -0.05053844 0.3664037 0.02526922 1.1497495 -0.3790383
-0.3916729 -0.1389807 0.2653268 -0.2526922 -0.15161532 0.0 0.24005759 0.06317305
-0.2526922 0.15161532 0.3664037 0.2526922 0.17688453 -0.31586525 0.1389807 -0.15161532
0.31586525 0.0 -0.518019 0.06317305 0.49274978 0.02526922 0.2653268 -0.2779614
-0.2779614 0.02526922 -1.2760956 0.0 0.15161532 -0.07580766 -0.30323064 -0.2779614
-0.03790383 0.0 0.2526922 -0.03790383 0.1389807 0.02526922 -0.21478836 -0.22742298
0.07580766 -0.22742298 0.01263461 0.16424993 0.07580766 -0.32849985 -0.11371149 0.21478836
-0.11371149 0.11371149 -0.10107688 -0.18951915 0.41694212 -0.01263461 0.17688453 -0.16424993
-0.2526922 0.22742298 0.48011518 0.3664037 -0.17688453 -0.29059604 0.5053844 0.30323064
-0.4043075 -0.06317305 -0.16424993 -0.15161532 0.06317305 0.3664037 0.3664037 -0.06317305
-0.03790383 0.3790383 -0.05053844 0.21478836 -0.30323064 0.088442266 0.11371149 0.03790383
0.22742298 -0.17688453 0.6822689 -0.06317305 -0.45484596 0.35376906 -0.088442266 -0.21478836
-0.16424993 -0.31586525 1.4024417 0.15161532 0.3664037 0.0 0.8717881 -0.03790383
0.17688453 -0.20215376 0.1389807 0.31586525 0.32849985 -0.07580766 -0.4043075 0.31586525
0.3916729 0.24005759 0.6822689 0.35376906 0.22742298 -0.2653268 0.745442 0.15161532
-0.96023035 -0.66963434 -0.32849985 0.24005759 -0.07580766 -0.2653268 -0.18951915 0.07580766
0.35376906 -0.07580766 0.30323064 -0.34113446 -0.2653268 -0.66963434 0.15161532 -0.15161532
00000000: eefc 00ec 0517 efec e6f8 0301 00fa f8f5
00000010: dceb 2714 f1de e2db f0de 3106 02e6 eef9
00000020: 0016 07e0 feff e906 e7ef 811b 18ea c901
00000030: 0f00 daf7 0eec 131f 0413 b4e6 fd06 b9e0
00000040: 0dec f0de ebf7 0526 1ae4 6f1a ea1e 35df
00000050: 1af3 f119 0f03 1be1 de13 f619 fff6 1b18
00000060: f01c da1b 1b20 e51a f5ff 960b 0001 cdde
00000070: 0df6 16e3 edfc 0ee9 faeb 5cfc 1d02 5be2
00000080: e1f5 15ec f400 1305 ec0c 1d14 0ee7 0bf4
00000090: 1900 d705 2702 15ea ea02 9b00 0cfa e8ea
000000a0: fd00 14fd 0b02 efee 06ee 010d 06e6 f711
000000b0: f709 f8f1 21ff 0ef3 ec12 261d f2e9 2818
000000c0: e0fb f3f4 051d 1dfb fd1e fc11 e807 0903
000000d0: 12f2 36fb dc1c f9ef f3e7 6f0c 1d00 45fd
000000e0: 0ef0 0b19 1afa e019 1f13 361c 12eb 3b0c
000000f0: b4cb e613 faeb f106 1cfa 18e5 ebcb 0cf4

sequential_1/dense_4/MatMul i1 [1, 16] scale=0.008502435 zero_point=0
0.28058034 -0.7737216 -0.9947849 -0.45913148 0.7992289 0.24657062 -0.42512175 0.5611607
-0.8417411 -0.42512175 0.2635755 -0.6801948 -0.28058034 0.71420455 0.39961445 -1.0798092
00000000: 21a5 8bca 5e1d ce42 9dce 1fb0 df54 2f81
