UltimasPesquisas/tflite-micro-main/tensorflow/lite/micro/examples/hello_world/train/models/model_no_quant.tflite (tflite, 3140 bytes, 5 tensors)

sequential_1/dense_3/BiasAdd/ReadVariableOp f4 [16]
0.0 0.1857115 0.41308543 0.24373259 -0.29829398 0.0 0.41823843 -0.31593364
0.19953293 0.3878139 -0.06791642 0.18589728 0.0 -0.3285484 -0.26470003 0.2087643
00000000: 0000 0000 282b 3e3e ef7f d33e 0995 793e
00000010: fdb9 98be 0000 0000 5923 d63e 0ec2 a1be
00000020: 5c52 4c3e 8b8f c63e c417 8bbd db5b 3e3e
00000030: 0000 0000 7f37 a8be c386 87be 4fc6 553e

sequential_1/dense_2/BiasAdd/ReadVariableOp f4 [16]
0.00063437305 0.30467793 -0.25716594 0.0 0.33126533 0.0 0.0 0.18139024
0.0 0.0 0.88881916 0.0 0.19090004 -0.28165472 -0.41982397 0.0
00000000: 0e4c 263a bffe 9b3e 41ab 83be 0000 0000
00000010: 9c9b a93e 0000 0000 0000 0000 5dbe 393e
00000020: 0000 0000 0000 0000 a789 633f 0000 0000
00000030: 4d7b 433e 0c35 90be 2bf3 d6be 0000 0000

sequential_1/dense_2/MatMul f4 [16, 1]
0.49632847 0.120163344 0.07159121 -0.12941524 0.05225009 -0.5364836 -0.38303018 0.27790242
-0.009614229 -0.18292877 -0.18462448 -0.33070034 0.4107046 0.5050306 0.107015505 -0.14003724
00000000: c41e fe3e 3318 f63d 6a9e 923d 6e85 04be
00000010: 3104 563d fd56 09bf 881c c4be 3a49 8e3e
00000020: 0085 1dbc ae51 3bbe 330e 3dbe 8e51 a9be
00000030: e047 d23e af49 013f f22a db3d ec65 0fbe

sequential_1/dense_3/MatMul f4 [16, 16]
-0.22823916 -0.052720785 -0.0058372915 -0.25366902 0.060682416 0.28659388 -0.21606582 -0.25502443
-0.3339057 -0.10099119 0.035239458 0.015801132 0.0022124946 -0.08006841 -0.09637499 -0.13718683
-0.45547333 -0.26948002 0.4874699 0.2500693 -0.18787043 -0.429534 -0.3851473 -0.4707592
-0.2041255 -0.42450017 0.62286645 0.07787874 0.030969396 -0.3298934 -0.2308447 -0.08642241
0.0042031207 0.278658 0.08695177 -0.40909198 -0.01986869 -0.016229868 -0.29218113 0.07504443
-0.32202196 -0.21818222 -1.6045954 0.3447055 0.30448845 -0.28274012 -0.69523937 0.007964015
0.18757343 -0.0023608818 -0.4774964 -0.1153315 0.17591451 -0.25703943 0.23521909 0.39076772
0.050147384 0.24008337 -0.957385 -0.32450515 -0.035944186 0.07726886 -0.89105415 -0.4052761
0.15925306 -0.25029573 -0.1985374 -0.42761633 -0.2654191 -0.11129168 0.06694567 0.48017237
0.32554165 -0.35316986 1.4017565 0.3290477 -0.273967 0.37731174 0.67354476 -0.42291
0.32231584 -0.16388631 -0.19437516 0.3187779 0.18518862 0.03553483 0.34623393 -0.39122298
-0.42959931 0.24439278 -0.12590218 0.31687275 -0.015886933 -0.12637356 0.3351603 0.29952416
-0.19613914 0.35542482 -0.4819706 0.33757058 0.33490565 0.4098654 -0.33875325 0.32814753
-0.13870257 -0.0066515505 -1.3334 0.14057377 0.0005511667 0.008583701 -0.6490966 -0.42781618
0.16552319 -0.12214926 0.2840324 -0.3632678 -0.2455887 -0.049308866 0.17075858 -0.2958539
-0.069954455 -0.2590307 1.1675067 -0.0463064 0.37035534 0.02504122 1.1466538 -0.37561274
-0.39194286 -0.13447642 0.26214254 -0.25091267 -0.15427598 -0.005879104 0.24520525 0.06790482
-0.25441206 0.15379933 0.3692899 0.2553133 0.17440249 -0.31827354 0.13311936 -0.15105608
0.3145172 -0.0017058034 -0.5162313 0.05923751 0.49132946 0.030715048 0.2644975 -0.2815116
-0.27947292 0.027822107 -1.2743376 -0.0052262247 0.1530842 -0.07476543 -0.29840216 -0.28377444
-0.03261648 0.0049105394 0.25630876 -0.044026673 0.14174658 0.022341996 -0.2092455 -0.22152889
0.076928824 -0.22963133 0.00850147 0.16723207 0.074914 -0.32422963 -0.11942159 0.21264306
-0.11383668 0.113007896 -0.1036527 -0.19461034 0.4150125 -0.015184283 0.17192736 -0.16721077
-0.25724232 0.22180286 0.4832375 0.36643216 -0.17477995 -0.29515105 0.50616616 0.30512455
-0.40692902 -0.059139848 -0.16473535 -0.15186402 0.05970466 0.3601468 0.37111476 -0.0590401
-0.042262226 0.37717226 -0.05240056 0.2194033 -0.30605668 0.08283809 0.11403349 0.041466683
0.2256306 -0.17386876 0.6803726 -0.06874749 -0.45202193 0.347994 -0.08676618 -0.21262605
-0.16684172 -0.32129547 1.396554 0.15223154 0.36782557 -0.0022945935 0.87283593 -0.039556473
0.17129052 -0.19664991 0.13311033 0.32121834 0.3302304 -0.07065296 -0.40995854 0.3117581
0.38645038 0.24506071 0.6808483 0.35802218 0.22769943 -0.25948456 0.75164104 0.14788058
-0.961326 -0.66691035 -0.32946968 0.2366822 -0.07614595 -0.2678936 -0.18872555 0.071809635
0.3482965 -0.07605356 0.30720192 -0.34355003 -0.26126936 -0.6712673 0.15381294 -0.15751198
00000000: 87b7 69be c0f1 57bd c046 bfbb e8e0 81be
00000010: 208e 783d 6fbc 923e 5c40 5dbe 9092 82be
00000020: b0f5 aabe 78d4 cebd 4057 103d 6071 813c
00000030: 80ff 103b e8fa a3bd 4060 c5bd b47a 0cbe
00000040: cd33 e9be 49f9 89be a895 f93e 1509 803e
00000050: 1b61 40be e1eb dbbe 0732 c5be 5a07 f1be
00000060: 4606 51be 1658 d9be 2d74 1f3f e47e 9f3d
00000070: 88b3 fd3c cae7 a8be 8e62 6cbe 3cfe b0bd
00000080: 55ba 893b 43ac 8e3e c513 b23d 8174 d1be
00000090: aac3 a2bc 80f4 84bc c498 95be e5b0 993d
000000a0: 10e0 a4be 296b 5fbe 6263 cdbf 3d7d b03e
000000b0: e9e5 9b3e 50c3 90be 35fb 31bf 807b 023c
000000c0: 4013 403e 06b9 1abb 687a f4be ec32 ecbd
000000d0: ef22 343e ac9a 83be 46dd 703e b512 c83e
000000e0: 5867 4d3d 6ad8 753e 2f17 75bf 8a25 a6be
000000f0: 363a 13bd 233f 9e3d 201c 64bf 5980 cfbe
00000100: 3c13 233e c326 80be 634d 4bbe 87f0 dabe
00000110: 03e5 87be e4ec e3bd d01a 893d 27d9 f53e
00000120: 65ad a63e aed2 b4be c26c b33f f178 a83e
00000130: 6745 8cbe 012f c13e 6e6d 2c3f a987 d8be
00000140: 9506 a53e d0d1 27be 480a 47be db36 a33e
00000150: 16a2 3d3e f88c 113d 9345 b13e 614e c8be
00000160: 71f4 dbbe 1a42 7a3e 80ec 00be 253d a23e
00000170: 5025 82bc 1268 01be 219a ab3e 3b5b 993e
00000180: b3d8 48be 3efa b53e dac4 f6be 0dd6 ac3e
00000190: c178 ab3e e1d9 d13e 1171 adbe f402 a83e
000001a0: 0c08 0ebe 40f5 d9bb daac aabf 92f2 0f3e
000001b0: 2c7c 103a a7a2 0c3c 322b 26bf b90a dbbe
000001c0: e97e 293e 6429 fabd b26c 913e 3dfe b9be
000001d0: 9b7b 7bbe 18f8 49bd 56db 2e3e 2a7a 97be
000001e0: 4844 8fbd ac9f 84be dc70 953f c8ab 3dbd
000001f0: 379f bd3e 3f23 cd3c 8dc5 923f 5050 c0be
00000200: bcac c8be 30b4 09be 8c37 863e a077 80be
00000210: 86fa 1dbe 80a5 c0bb 1617 7b3e af11 8b3d
00000220: 4c42 82be 927d 1d3e 9113 bd3e 6db8 823e
00000230: 9196 323e c0f4 a2be 7150 083e 72ae 1abe
00000240: 6608 a13e 4495 dfba bc27 04bf 08a3 723d
00000250: 898f fb3e 209e fb3c 376c 873e 4a22 90be
00000260: 1317 8fbe 30eb e33c 7f1d a3bf c040 abbb
00000270: 1bc2 1c3e 9e1e 99bd 2bc8 98be e24a 91be
00000280: dc98 05bd 97e8 a03b e73a 833e 5055 34bd
00000290: 0426 113e 9006 b73c 7444 56be 78d8 62be
000002a0: dc8c 9d3d 7a24 6bbe c049 0b3c e23e 2b3e
000002b0: 836c 993d 6d01 a6be 4e93 f4bd 1abf 593e
000002c0: 3523 e9bd af70 e73d de47 d4bd ef47 47be
000002d0: 857c d43e 80c7 78bc ba0d 303e 4d39 2bbe
000002e0: 44b5 83be 4a20 633e e86a f73e ff9c bb3e
000002f0: 84f9 32be 0a1e 97be 1b94 013f 4939 9c3e
00000300: 0059 d0be a03c 72bd 62b0 28be 3e82 1bbe
00000310: e08c 743d 2965 b83e c102 be3e 08d4 71bd
00000320: 281b 2dbd b91c c13e f8a1 56bd 42ab 603e
00000330: 76b3 9cbe 04a7 a93d 648a e93d f8d8 293d
00000340: b50b 673e a70a 32be e62c 2e3f 7ccb 8cbd
00000350: 6b6f e7be 452c b23e 78b2 b1bd a5ba 59be
00000360: 8ed8 2abe d780 a4be 48c2 b23f 96e2 1b3e
00000370: a253 bc3e e460 16bb 2d72 5f3f f805 22bd
00000380: c866 2f3e 985e 49be 134e 083e bb76 a43e
00000390: f613 a93e 80b2 90bd 16e6 d1be c29e 9f3e
000003a0: d3dc c53e 32f1 7a3e 134c 2e3f af4e b73e
000003b0: 0a2a 693e 29db 84be 8c6b 403f 026e 173e
000003c0: 7619 76bf a3ba 2abf 40b0 a8be d25c 723e
000003d0: 68f2 9bbd 5a29 89be 4541 41be ee10 933d
000003e0: eb53 b23e f8c1 9bbd 9249 9d3e cae5 afbe
000003f0: 19c5 85be 2cd8 2bbf 2481 1d3e d24a 21be

sequential_1/dense_4/MatMul f4 [1, 16]
0.27896255 -0.774639 -0.99241817 -0.46322215 0.79498166 0.24268073 -0.4262927 0.55948627
-0.8381705 -0.4252757 0.26199043 -0.6828554 -0.2808103 0.71277463 0.3984583 -1.0798092
00000000: 2ed4 8e3e be4e 46bf 1e0f 7ebf 742b edbe
00000010: eb83 4b3f 4c81 783e 0943 dabe 7e3a 0f3f
00000020: 5892 56bf bdbd d9be 9c23 863e 9dcf 2ebf
00000030: 5ec6 8fbe 6678 363f ba02 cc3e 3037 8abf
